src/data/outputs/dlpo/dlpo_10_10_50_1.pt (torch, 212247 bytes, 6 tensors)

lstm.weight_ih_l0 f4 [256, 8]
0	0x3ca43cf7	0.020048602
1	0x3dc67c87	0.096917205
2	0x3dd17cd0	0.10228884
3	0xbd03be25	-0.032163758
4	0x3bd91b1e	0.006625547
5	0xbb76c67c	-0.0037654927
6	0xbde2182b	-0.11039766
7	0xbcfecc90	-0.031103402
8	0x3e1a6145	0.15076168
9	0x3e7d5b6f	0.2474191
10	0x3c279ac8	0.010229774
11	0x3d2a2568	0.04153958
12	0xbda0376d	-0.07823072
13	0xbd3629c2	-0.044473417
14	0xbd47254d	-0.048619557
15	0xbd19d683	-0.03755809
16	0x3d723709	0.059134517
17	0xbc40745c	-0.011746492
18	0xbd55f2ec	-0.05223362
19	0xbe0566c1	-0.13027479
20	0xbcd14e96	-0.025550168
21	0x3d650f69	0.0559229
22	0x3e148b0d	0.14506169
23	0xbdc1fd05	-0.09472088
24	0x3d4f9745	0.05068137
25	0xbd9d84ba	-0.07691331
26	0x3e0200fb	0.12695687
27	0xbdede075	-0.116150774
28	0xbd9c778d	-0.0763999
29	0xbdc41ca9	-0.09575779
30	0xbda0a9db	-0.07844897
31	0xbcfa4153	-0.030548727
32	0xbdf8b4f4	-0.12143889
33	0xb9fa139a	-0.0004769832
34	0xbd39b782	-0.045341022
35	0xbd9cd678	-0.07658094
36	0xbd414ae3	-0.04719056
37	0xbcdc5382	-0.026895288
38	0xbdf3aaec	-0.11897835
39	0x3d333d48	0.043759614
40	0x3da662b7	0.08124297
41	0x3ce2f450	0.027704388
42	0x3db1eb29	0.08687431
43	0x3d11401f	0.03546154
44	0x3c528b51	0.012850598
45	0xbd80199c	-0.062548846
46	0x3c4bb592	0.012433426
47	0xbe06c8f1	-0.1316259
48	0xbd0bbf12	-0.034117766
49	0xbddf66e4	-0.10908297
50	0x3c913c62	0.017728988
51	0x3d690ace	0.05689507
52	0xbd3cc444	-0.04608561
53	0x3b902d19	0.0043999073
54	0x39f9c39e	0.00047638727
55	0xbcd5201e	-0.026016291
56	0xbdb534d9	-0.088479705
57	0x3d7d98c3	0.061913263
58	0xbcd7e608	-0.026354805
59	0x3d554a6d	0.05207293
60	0xbda377ca	-0.07981832
61	0xbdb607a5	-0.08888177
62	0xbbd4fcb0	-0.0064998493
63	0x3d9d6cf7	0.07686799
64	0x3ddf6cae	0.10909401
65	0xbd5598b9	-0.0521476
66	0x3d312233	0.043245506
67	0xbdb2b830	-0.08726537
68	0x3d278011	0.040893618
69	0xbd081503	-0.033223163
70	0x3dc23cb6	0.09484236
71	0x3d4a21e0	0.049348712
72	0x3d0277d9	0.031852577
73	0x3cf34662	0.029696647
74	0x3dc08905	0.094011344
75	0x3bd7aaa9	0.0065816236
76	0x3de436f7	0.11143296
77	0x3b2e8746	0.0026630922
78	0x3d96f8a1	0.07371641
79	0x3cb5456a	0.022127826
80	0xbd4223a5	-0.047397275
81	0xbdd73989	-0.10509021
82	0x3bb00c33	0.005372548
83	0xbcb6e998	-0.022328183
84	0x3dc5deb2	0.096616164
85	0xbccc28ee	-0.02492186
86	0x3ba211df	0.004945978
87	0xbd849819	-0.06474323
88	0x3cd6d6f4	0.026225545
89	0x3bd36342	0.0064510414
90	0x3d335302	0.043780334
91	0xbdb8372d	-0.08994899
92	0x3d927c08	0.07152563
93	0xbd3c3b49	-0.045954976
94	0x3cac100d	0.021003747
95	0xbe221bf4	-0.15830976
96	0xbc7a13c6	-0.015263503
97	0x3d758865	0.05994453
98	0xbd64a70f	-0.055823382
99	0xbde3606c	-0.111023754
100	0xbda3fa44	-0.08006719
101	0x3d4f1f12	0.05056674
102	0xbd141c99	-0.036160085
103	0x3c9d6a95	0.019215861
104	0xbcc72b6d	-0.0243127
105	0xbcec3a96	-0.02883653
106	0xbdf03763	-0.11729314
107	0xbd48cb30	-0.0490219
108	0x3d89cff9	0.06729121
109	0xbdea1179	-0.11429114
110	0x3d88e3e6	0.06684093
111	0xbdd63a41	-0.1046033
112	0xbcb1b939	-0.021694766
113	0x3c9e1847	0.019298686
114	0xbd9d50ac	-0.076814026
115	0xbd045f09	-0.032317195
116	0xbd47921c	-0.048723325
117	0xbd81ac96	-0.06331746
118	0xbd946963	-0.072466634
119	0xbd1b51d9	-0.037919853
120	0x3e0bfbde	0.13670298
121	0x3c07a877	0.008279911
122	0xbd170480	-0.036869526
123	0xbd820492	-0.06348528
124	0xbcc5d21f	-0.024148045
125	0x3cd34eb5	0.025794366
126	0xbcb3dfa6	-0.02195723
127	0x3d89e1f8	0.06732553
128	0x3b3ea7c8	0.0029091705
129	0x3d9755ae	0.07389389
130	0x3d8f536f	0.069983356
131	0x3c5ce0a5	0.013481294
132	0x3dc7c8e1	0.097551115
133	0xbd80b063	-0.06283643
134	0xbcbb6b00	-0.02287817
135	0x3c95a184	0.018265493
136	0xbdc59a44	-0.096485645
137	0x3d126575	0.03574129
138	0x3d7c1db1	0.061551753
139	0x3db25a62	0.087086454
140	0x3e0a8df0	0.13530707
141	0xbca6ca4f	-0.02036014
142	0x3d1fa5d7	0.038976517
143	0x3db27f1c	0.087156504
144	0xbd067113	-0.03282268
145	0x3d8b5058	0.06802434
146	0x3bec3c98	0.007209372
147	0x3df770a1	0.12082029
148	0xbded1a80	-0.1157732
149	0xbd267e45	-0.040647764
150	0x3de578f9	0.11204714
151	0xbde00a1e	-0.1093943
152	0x3bb52406	0.005527976
153	0x3dcbfc9c	0.09960291
154	0x3dbd0164	0.09228781
155	0xbd8ccb89	-0.06874759
156	0x3dceba86	0.1009417
157	0x3d9404c3	0.07227471
158	0x3c931c2f	0.017957775
159	0x3dbf6778	0.09345907
160	0xbc43f59b	-0.011960412
161	0xbe6f1da2	-0.23351148
162	0xbdaceac2	-0.08443214
163	0x3dc91b54	0.098196656
164	0x3d8b6536	0.06806414
165	0x3d23f626	0.040029667
166	0x3d5c473c	0.053778872
167	0x3e303418	0.17207372
168	0x3d1b8f87	0.037978675
169	0x3d8f0fa5	0.06985406
170	0xbdd68d35	-0.10476152
171	0x3bc4c842	0.006005318
172	0xbdf045b6	-0.11732046
173	0xbdf80844	-0.121109515
174	0x3cf5b3c6	0.02999295
175	0x3d933979	0.071886964
176	0x3c92f17c	0.017937414
177	0x3dbb7043	0.091522716
178	0x3da4320b	0.080173574
179	0x3da893ec	0.08231339
180	0x3d5f0068	0.054443747
181	0x3d3bddd3	0.045865845
182	0x3d98401f	0.07434105
183	0xbc240fb7	-0.010013512
184	0xbcb1f0f4	-0.02172134
185	0x3d674990	0.05646664
186	0x3da2ef76	0.0795583
187	0xbdebfdf0	-0.11523044
188	0x3dc5b28c	0.09653196
189	0x3dc7e0d6	0.09759681
190	0x3e08a5a7	0.13344441
191	0xbdb84f12	-0.089994565
192	0x3d1a2019	0.037628267
193	0xbe12d8ce	-0.14340517
194	0xbd806c8e	-0.06270705
195	0x3d4dde53	0.050260853
196	0x3db4c855	0.08827273
197	0x3e2f58e3	0.17123751
198	0xbd06a8ca	-0.032875814
199	0x3b2ef898	0.0026698466
200	0x3dfd3646	0.123638675
201	0xbcf842e3	-0.030305332
202	0x3ce83b6f	0.028348653
203	0x3d87c108	0.06628615
204	0xb9f63820	-0.00046962593
205	0x3db9fa1a	0.09080906
206	0x3c2fc323	0.010727677
207	0x3d53a702	0.051672943
208	0xbb648961	-0.0034871923
209	0x3d12d2ba	0.035845496
210	0x3d0af943	0.03392912
211	0x3cf954d3	0.030435955
212	0xbd91bfaf	-0.07116639
213	0xbc5a5271	-0.01332532
214	0x3d328daf	0.04359215
215	0xbca6086f	-0.020267693
216	0x3d5c70e9	0.053818617
217	0x3d5e20ef	0.054230627
218	0xbd451ed0	-0.04812509
219	0xbd492eaf	-0.049116787
220	0x3d9dc1af	0.07702958
221	0xbe09f9ac	-0.13474149
222	0x3d20f9ef	0.039300855
223	0x3cb41c8b	0.021986267
224	0xbdc91cf5	-0.09819976
225	0xbdfce09d	-0.12347529
226	0xbdb29da8	-0.08721477
227	0xbc3fdac5	-0.011709874
228	0xbdb82aae	-0.089925155
229	0xbd82901e	-0.063751444
230	0xbd870cff	-0.06594276
231	0x3d98e770	0.07466018
232	0xbddb5e47	-0.10711341
233	0x3d9cbe8b	0.07653531
234	0xbd6fa428	-0.05850616
235	0xbd1bb749	-0.03801659
236	0xbdeb025f	-0.114750616
237	0x3ddd9b87	0.1082068
238	0xbd980c99	-0.07424278
239	0xbdda7178	-0.10666174
240	0x3d061341	0.032733206
241	0xbdc51dad	-0.09624801
242	0xbdc82c50	-0.09774077
243	0x3df5f046	0.12008719
244	0xbde6e1a2	-0.11273505
245	0x3c50d4fa	0.01274609
246	0x3ca9cf31	0.02072868
247	0x3db2d9bc	0.08732936
248	0xbd7e3ee2	-0.06207169
249	0x3ddeaf25	0.1087325
250	0x3b99b670	0.0046909377
251	0xbdc47d78	-0.09594244
252	0x3de01494	0.10941425
253	0x3d7dc2b0	0.061953247
254	0x3cf05849	0.029338973
255	0x3d8519c6	0.064990565

lstm.weight_hh_l0 f4 [256, 64]
0	0xbd8cbf72	-0.06872453
1	0x3d948f0a	0.07253845
2	0xbd647532	-0.05577583
3	0xbcb98e0d	-0.022650743
4	0xbdbffbb8	-0.093741834
5	0xbbbd6700	-0.005780101
6	0xbc669b4f	-0.014075114
7	0xbc89b520	-0.01681
8	0xbdd2e9c6	-0.10298495
9	0xbcc133d4	-0.023584284
10	0xbb833b57	-0.0040048766
11	0x3c40e2ca	0.011772821
12	0xbba0b0c0	-0.0049038827
13	0x3d4efc8b	0.050533812
14	0x3dd93cf4	0.10607329
15	0x3dd15041	0.10220385
16	0x3c813911	0.015774282
17	0x3b7edab0	0.0038887672
18	0x3d7cd82f	0.061729606
19	0x3d51ea22	0.051248677
20	0x3da768db	0.081742965
21	0x3cbbb6a8	0.022914246
22	0x3c99ce13	0.018775022
23	0xba7eb47a	-0.0009716224
24	0xbde67448	-0.11252648
25	0x3de007bf	0.109389775
26	0x3c27b7b3	0.010236668
27	0x3dfc4c13	0.123191975
28	0x3c1c0820	0.0095234215
29	0x3de4c220	0.11169839
30	0x3dbfb575	0.09360782
31	0x3c3d1819	0.01154139
32	0xbde42a66	-0.11140899
33	0xbd8ce148	-0.068789065
34	0x3a5bc059	0.0008382849
35	0xbdacb862	-0.08433606
36	0x3d1157a7	0.035483982
37	0xbcaf8c29	-0.021429138
38	0xbd7f74c8	-0.06236723
39	0xbc743d87	-0.014907247
40	0x3cf99d22	0.030470435
41	0xbcdb4088	-0.02676417
42	0xbdb87ebe	-0.09008549
43	0xbaff1ba7	-0.0019463197
44	0xbd31149c	-0.043232545
45	0x3dbd285b	0.09236213
46	0xbdf14277	-0.11780255
47	0xbd9719a4	-0.073779374
48	0xbd9aa53c	-0.07551047
49	0x3c806fed	0.01567837
50	0x3c07be58	0.008285128
51	0x3d583f98	0.052795023
52	0x3dca4c1a	0.098777965
53	0x3d115254	0.035478905
54	0xbd25eefd	-0.04051112
55	0xbdb9bd73	-0.09069338
56	0xbbcf0f08	-0.0063189305
57	0xbd0b42ce	-0.033999257
58	0x3d699df9	0.05703542
59	0x3d53abee	0.051677637
60	0x3d8630aa	0.06552251
61	0x3dce9c59	0.10088415
62	0xbd381b10	-0.044947684
63	0xbdda341d	-0.10654471
64	0x3dc496e0	0.095990896
65	0x3daca6e1	0.08430267
66	0xbd3be0f2	-0.04586882
67	0x3c87c1b2	0.016571853
68	0xbde8a517	-0.113596134
69	0xbdbb98b4	-0.09159985
70	0x3c90c2e1	0.01767105
71	0x3da27a53	0.07933488
72	0xbc412c6a	-0.011790374
73	0x3dcbe368	0.09955484
74	0x3dae1672	0.08500375
75	0x3cb09d97	0.02155952
76	0x3e195f60	0.14977789
77	0xbda56aa7	-0.08076983
78	0x3df2b969	0.118517704
79	0x3c20be37	0.009810976
80	0xbcc58aa1	-0.024113955
81	0x3db4fb91	0.08837045
82	0xbd95cd2c	-0.07314524
83	0xbd807f87	-0.06274324
84	0x3d86a2c6	0.06574015
85	0xbd7c2324	-0.06155695
86	0x39bf149f	0.00036445723
87	0x3de82516	0.113351986
88	0x3dcefb47	0.10106521
89	0x3d01d7ef	0.03170007
90	0xbd5c7d33	-0.053830337
91	0xbd6c0c40	-0.05762887
92	0x3d82d0ee	0.063875064
93	0x3dfa11d9	0.122104354
94	0xbe05e148	-0.13074219
95	0x3a573ecd	0.0008210957
96	0x3c49d48f	0.012318744
97	0x3e163385	0.1466809
98	0xbdd3250f	-0.10309803
99	0xbe1487e6	-0.14504966
100	0x3d937c3e	0.07201432
101	0xbd0124c3	-0.0315292
102	0xbe1efc5a	-0.15525952
103	0x3e26ba90	0.16282105
104	0xbe079616	-0.13240847
105	0xbdf9aa5e	-0.12190698
106	0xbd5b83f9	-0.053592656
107	0x3d841682	0.064496055
108	0x3dce3db1	0.100703605
109	0x3dbc7da0	0.092036486
110	0xbce33530	-0.027735323
111	0x3d1f3ee7	0.038878348
112	0x3da61fed	0.08111558
113	0x3d2fa3ec	0.042880937
114	0x3d0a9bda	0.033840038
115	0x3c3ae447	0.011406965
116	0x3e0d3c70	0.13792586
117	0xbd9c958f	-0.076457135
118	0x3da55333	0.080725096
119	0xbdeccf7d	-0.11563013
120	0x3e1b5014	0.15167266
121	0xbdde6751	-0.1085955
122	0x3d51e43a	0.051243044
123	0x3d416c5e	0.047222488
124	0x3c91227f	0.017716644
125	0xbdaad681	-0.083416946
126	0x3c166e37	0.009181551
127	0x3c810e13	0.015753781
128	0x3cbd2146	0.023087155
129	0x3df042fe	0.11731528
130	0xbd9b6606	-0.07587819
131	0x3e0d43b9	0.13795365
132	0x3dec3088	0.11532694
133	0xbbf526df	-0.0074814404
134	0xbd89ed4a	-0.067347124
135	0xbc781d6b	-0.015143733
136	0x3e0d4ecc	0.1379959
137	0xbbc49973	-0.005999738
138	0x3df5cdf1	0.12002171
139	0xbd89e069	-0.06732256
140	0xbd60b066	-0.054855727
141	0x3b78a786	0.0037941649
142	0xbd01a921	-0.031655435
143	0x3e22506b	0.1585099
144	0x3dc6bcae	0.097039565
145	0x3e130265	0.14356382
146	0x3d7624f2	0.060093828
147	0xbd84efbb	-0.064910375
148	0xbcb42942	-0.02199233
149	0xbe0cf1d0	-0.13764119
150	0xbd9f7c6e	-0.07787405
151	0x3d72b55a	0.05925498
152	0xbb82e45b	-0.0039945072
153	0x3e15c273	0.14624958
154	0xbe1e4d01	-0.15459062
155	0x3d98890a	0.07448013
156	0xbdc4e21c	-0.096134394
157	0xbd50429f	-0.050844785
158	0x3d901ae6	0.070363805
159	0x3da13ecf	0.07873308
160	0xbdd344e0	-0.10315871
161	0xbde351d4	-0.11099592
162	0xbd77f6e5	-0.06053819
163	0x3b4e849e	0.0031512151
164	0xbd8bced6	-0.0682656
165	0xbe1b6fe7	-0.15179406
166	0xbd13025e	-0.03589093
167	0x3c95b2b2	0.018273685
168	0xbd257d5c	-0.040402755
169	0x3d41218b	0.04715113
170	0x3c075812	0.008260744
171	0xbc5223da	-0.0128259305
172	0x3ddda365	0.10822181
173	0xbc07bcf8	-0.0082848
174	0xbd8da2d5	-0.06915823
175	0xbdf2a25b	-0.11847373
176	0x3d4c7ec6	0.049925588
177	0xbe0634aa	-0.13106027
178	0xbdddf8c2	-0.108384624
179	0xbd9c6804	-0.07637027
180	0x3da46f6c	0.080290645
181	0xbd75ea33	-0.060037803
182	0x3e0af13b	0.13568585
183	0x3cc8d969	0.024517732
184	0x3dd855a4	0.1056321
185	0x3d48450c	0.048893973
186	0x3e0d1fb6	0.13781628
187	0x3daa27ab	0.08308347
188	0x3d97032c	0.07373652
189	0x3bce1a2b	0.0062897406
190	0x3ba36f43	0.0049876287
191	0x3d83779d	0.06419299
192	0xbdfa6fbe	-0.122283444
193	0x3d4d1e48	0.050077707
194	0xbd81eaf1	-0.0634364
195	0xbdb1755f	-0.08664965
196	0x3cb8e7f1	0.022571536
197	0xbcc943a7	-0.024568392
198	0x3d972abb	0.07381197
199	0xbbc93607	-0.0061404738
200	0x3d23f6eb	0.0400304
201	0x3dd27bf1	0.10277546
202	0x3cf16e52	0.02947155
203	0xbd846331	-0.06464232
204	0xbded0fc9	-0.115752764
205	0xbd53bd62	-0.05169428
206	0x3da36799	0.07978744
207	0x3dc46b46	0.09590773
208	0x3ccf6272	0.025315497
209	0x3dd7edfa	0.10543437
210	0x3df0df60	0.117613554
211	0x3dae3459	0.08506078
212	0xbdaea386	-0.08527283
213	0xbc8fe358	-0.01756446
214	0x3d1199dd	0.035547126
215	0x3d924710	0.0714246
216	0xbd2112ad	-0.03932445
217	0x3c0545be	0.008134304
218	0x3d78d1c9	0.06074694
219	0x3d715471	0.05891842
220	0xbdab7cdd	-0.08373425
221	0x3b8b2da1	0.0042473827
222	0xbcc6e4b6	-0.02427898
223	0xbd9e0a35	-0.077167906
224	0x3d94832d	0.07251582
225	0x3d877bd2	0.06615414
226	0xbdcb9493	-0.09940448
227	0xbd661dff	-0.05618095
228	0xbd6f6460	-0.058445334
229	0x3dda33fe	0.10654448
230	0xbc814921	-0.01578194
231	0x3d9a34fd	0.07529638
232	0xbe169653	-0.14705782
233	0xbbf71641	-0.0075404947
234	0x3dcdfd26	0.1005805
235	0x3d6d39de	0.057916515
236	0xbd8bd8e6	-0.068284795
237	0x3d92d16f	0.071688525
238	0x3d4e3854	0.050346687
239	0xbd9ad079	-0.07559294
240	0xbd8901fa	-0.0668983
241	0xbdee8a97	-0.11647528
242	0x3cff62b5	0.031174997
243	0xbd26efe0	-0.040756106
244	0x3caf4180	0.021393538
245	0xbda84b6b	-0.0821751
246	0xbc2b60d1	-0.010460095
247	0xbd83bf8e	-0.064330205
248	0xbdecd89e	-0.11564754
249	0x3d47cd29	0.04877964
250	0xbcc7bf95	-0.024383346
251	0xbbaecb8c	-0.0053343233
252	0xbb49ed9e	-0.0030811797
253	0xbdd45e34	-0.1036953
254	0x3deae5d8	0.114696205
255	0xbd2f1b22	-0.042750485

lstm.bias_ih_l0 f4 [256]
0	0x3d57d441	0.052692655
1	0xbc0b0f8c	-0.008487593
2	0xbd28c775	-0.041205842
3	0xbcd46189	-0.025925415
4	0xbdab695a	-0.083697036
5	0x3c382618	0.011239551
6	0xbdc5fd96	-0.09667508
7	0x3d801c3a	0.06255384
8	0x3d060cf1	0.032727186
9	0xbdb62340	-0.08893442
10	0xbd990eaa	-0.074735
11	0x3da00283	0.07812979
12	0x3d8d81d5	0.06909529
13	0xbd3a8a90	-0.0455423
14	0xbde8bae0	-0.113637686
15	0xbd87abe3	-0.06624582
16	0x3e2a0b66	0.1660591
17	0xbb80554b	-0.0039164177
18	0x3cff1177	0.031136258
19	0x3d32fea8	0.04369989
20	0xbd51a50e	-0.0511828
21	0xbd90a321	-0.07062364
22	0xbcdf9522	-0.027292792
23	0xbc53ffe8	-0.012939431
24	0xbdd273c9	-0.102759905
25	0xbcc6905f	-0.024238763
26	0xbd51be9b	-0.051207166
27	0x3d51732f	0.05113524
28	0x3d2dcdff	0.04243278
29	0xbc0640f5	-0.008194198
30	0xbdb3c34f	-0.087774865
31	0xbd4bcdc4	-0.04975678
32	0xbbc94d47	-0.0061432454
33	0xbd989cf0	-0.074518085
34	0xbd5d55e4	-0.05403699
35	0xbd7813ef	-0.060565885
36	0xbdc7d5ec	-0.09757599
37	0xbd94f513	-0.07273307
38	0x3d97e366	0.0741642
39	0x3deb5bc4	0.11492112
40	0x3e382f21	0.17986728
41	0xbd042a44	-0.03226687
42	0xbdeb7bf4	-0.114982516
43	0x3d574f6c	0.052565977
44	0x3d1b2816	0.037880026
45	0xbdb6c5da	-0.08924456
46	0x3e19c3ef	0.15016149
47	0x3d9fcc71	0.07802666
48	0xbda2a5e2	-0.07941796
49	0xbd84c68f	-0.064831845
50	0xbdcd697f	-0.100298874
51	0xbda76eae	-0.08175407
52	0x3bfa8e47	0.0076463553
53	0x3e02f8af	0.12790178
54	0x3d5a058c	0.053227946
55	0xbdcf9200	-0.10135269
56	0x3dc098a2	0.094041124
57	0x3e297ea6	0.16552219
58	0x3e00126f	0.12507032
59	0x3db81b7d	0.08989618
60	0x3d9ca209	0.07648093
61	0xbd6b700e	-0.05747991
62	0xbcdbeef0	-0.026847333
63	0x3b8d2549	0.0043074233
64	0xbcd86048	-0.026413098
65	0xbccb2c4c	-0.024801396
66	0x3cedd28d	0.029031062
67	0xbd465ae6	-0.04842653
68	0xbddb6acf	-0.107137315
69	0x3d726833	0.059181403
70	0x3d23678a	0.039893664
71	0xbb94eb85	-0.0045446777
72	0xbde88c2b	-0.1135486
73	0x3c6e8b0f	0.014559521
74	0x3de349eb	0.11098083
75	0xbd17ad74	-0.037030652
76	0x3c93fb8c	0.018064283
77	0x3a2bf0fd	0.00065590424
78	0x3c31d886	0.010854846
79	0xbda3d7be	-0.08000134
80	0x3da6e60a	0.08149345
81	0x3b85263a	0.004063395
82	0xbdfdc8e2	-0.12391831
83	0xbc3c8b31	-0.011507795
84	0xbd950394	-0.07276073
85	0x3cddd08a	0.027076978
86	0xbc957280	-0.018243074
87	0xbcb09c75	-0.02155898
88	0xbd80282e	-0.06257664
89	0x3df63e71	0.120236285
90	0x3bf39f54	0.007434765
91	0x3ddf8264	0.10913542
92	0x3d17993d	0.037011374
93	0xbae64c52	-0.0017570353
94	0xbde23bbd	-0.110465504
95	0xbd86e703	-0.06587031
96	0x3d530431	0.05151767
97	0x3d6b35cb	0.057424348
98	0x3d55a5d4	0.0521601
99	0xbc7b703a	-0.015346581
100	0x3c47dfae	0.0121993255
101	0x3d50c4a6	0.05096879
102	0xbd8c57c1	-0.06852675
103	0xbb8a8613	-0.0042274087
104	0x3d606834	0.054786876
105	0xbdd3ebb8	-0.10347694
106	0x3c337b66	0.010954713
107	0x3d62ad1d	0.055340875
108	0x3dc60c8b	0.09670361
109	0xbbfb5e83	-0.007671179
110	0xbc23d9ca	-0.010000655
111	0xbc72b348	-0.014813252
112	0xbdeb8bd0	-0.115012765
113	0x3d02737b	0.031848412
114	0x3cb209b5	0.021733144
115	0x3b72b731	0.003703546
116	0x3d4bb4d7	0.04973301
117	0x3b591968	0.0033126716
118	0x3cb87389	0.022516029
119	0x3d86d42d	0.06583438
120	0xbd979fd0	-0.07403529
121	0xbca4f411	-0.020135911
122	0xbc1aa98c	-0.009439837
123	0x3bf6918e	0.0075246757
124	0xbd887e32	-0.06664695
125	0x3d6620e2	0.056183703
126	0x3d8e5b8c	0.06951055
127	0xbd11c07f	-0.03558397
128	0x3da1d9fe	0.07902907
129	0x3de64528	0.11243659
130	0x3d738475	0.059452493
131	0xbc9c54f4	-0.019083478
132	0xbc9a2b9f	-0.018819628
133	0xbdfca197	-0.12335508
134	0x3dfbcdec	0.12295136
135	0x3d2631d6	0.04057487
136	0x3b1034fe	0.0022004242
137	0x3db90125	0.090334214
138	0x3d4499a1	0.047998074
139	0x3de33586	0.11094193
140	0xbdc49d50	-0.096003175
141	0xbce0c360	-0.027436912
142	0x3da88c56	0.08229892
143	0xbd76e51c	-0.06027709
144	0xbbc2146d	-0.005922845
145	0xbdca1c5c	-0.0986869
146	0xbda3ec4a	-0.08004053
147	0x3cee0f04	0.029059894
148	0x3dcbb2b0	0.09946191
149	0x3d90f7ea	0.07078536
150	0x3d1077ec	0.035270616
151	0xbd956664	-0.0729492
152	0x3dd3e170	0.10345733
153	0x3c8c6f94	0.017143048
154	0xbd0d4097	-0.034485426
155	0xbddf404e	-0.10900937
156	0x3d7d89e8	0.061899096
157	0xbdd8898b	-0.10573109
158	0xbc1b3b34	-0.009474564
159	0xbd191ee8	-0.03738299
160	0xbdc2cdd8	-0.09511918
161	0x3cc03330	0.023461908
162	0xbc3dbb4f	-0.011580302
163	0x3deedaea	0.11662848
164	0x3dc88719	0.09791393
165	0xbd857823	-0.06517055
166	0x3dc8dcab	0.09807714
167	0x3cdae173	0.02671883
168	0x3d1b517b	0.037919503
169	0xbd7f5df0	-0.062345445
170	0xbcf647b7	-0.030063493
171	0x3d9fcc86	0.078026816
172	0x3d350c70	0.044201314
173	0x3d91aa00	0.07112503
174	0x3d326a8c	0.043558642
175	0xbda2d594	-0.07950893
176	0x3d5b3d7c	0.053525433
177	0xbc56a872	-0.013101684
178	0xbc1a8e60	-0.009433359
179	0x3e0bfee0	0.13671446
180	0x3db40a59	0.08791036
181	0xbd89e74b	-0.06733569
182	0x3db8f7c4	0.090316325
183	0x3c5a0f50	0.013309315
184	0xbd147cad	-0.036251713
185	0xbd28ab36	-0.041178904
186	0xbd0832c8	-0.033251554
187	0xbd060644	-0.03272082
188	0xbd8698c3	-0.06572106
189	0x3cfb6fd1	0.030692967
190	0x3daa5974	0.08317843
191	0xbda0c98c	-0.07850942
192	0x3da5d47a	0.08097167
193	0x3db50bdb	0.08840152
194	0x3d5ead18	0.054364294
195	0x3dd591d9	0.10428209
196	0x3da163e7	0.07880383
197	0xbd2a352c	-0.041554615
198	0x3c1f13a0	0.009709269
199	0xbc9a23fe	-0.01881599
200	0xbd475567	-0.04866543
201	0xbdc86c9f	-0.09786343
202	0x3df0f6cd	0.117658235
203	0x3de141e8	0.10998899
204	0x3a68e862	0.00088847254
205	0x3dfa5c0e	0.12224589
206	0x3ca153d8	0.0196933
207	0xbcf9937b	-0.030465832
208	0x3d8a6182	0.067568794
209	0x3df003af	0.117194526
210	0x3b83f4f2	0.0040270025
211	0x3bb880a2	0.0056305686
212	0xbdc84bdf	-0.09780096
213	0xbc078556	-0.008271536
214	0xbbda12c0	-0.006655067
215	0x3d865019	0.06558246
216	0xbd279589	-0.040914092
217	0x3d914376	0.07092945
218	0xbd699495	-0.057026464
219	0xbd379e4c	-0.044828698
220	0xbe00efd6	-0.1259149
221	0x3d841e74	0.06451121
222	0xbc0dce78	-0.008655183
223	0xbdc6c393	-0.097052716
224	0x3c12da07	0.008963115
225	0x3c983aa1	0.018582644
226	0x3d1afbbf	0.03783774
227	0x3d81f361	0.06345249
228	0xbd6aefac	-0.057357475
229	0x3c448ac8	0.011995979
230	0xbd83082f	-0.06398045
231	0x3c628675	0.013826002
232	0xbd28a759	-0.04117522
233	0x3d9a0bb8	0.075217664
234	0x3d119d19	0.03555021
235	0xbd3bb817	-0.04582986
236	0xbc4bde46	-0.012443131
237	0xbd292a36	-0.04130002
238	0xbc883942	-0.016628865
239	0x3d82cdba	0.063868955
240	0x3d046b5e	0.032328956
241	0x3d9725b6	0.0738024
242	0xbd5d7ce8	-0.054074198
243	0x3d2ec283	0.04266597
244	0xbd2b3e8e	-0.041807704
245	0x3dcf83ec	0.10132584
246	0xbd9115ec	-0.070842594
247	0x3da6c8ef	0.08143794
248	0x3e160d0b	0.14653413
249	0x3d02705b	0.03184543
250	0xbda4055c	-0.08008835
251	0x3cf22d50	0.029562622
252	0x3e014d56	0.12627158
253	0x3d56619e	0.05233919
254	0x3d095b13	0.03353412
255	0x3d1bd325	0.03804316

lstm.bias_hh_l0 f4 [256]
0	0xbdfde61f	-0.12397408
1	0x3d1ea1e0	0.038728595
2	0x3ca7d7c3	0.020488625
3	0x3dbef371	0.093237765
4	0xbdb72b3b	-0.089437924
5	0x3c0f2f20	0.008739263
6	0x3d2fc30c	0.04291062
7	0xbdb39f52	-0.08770622
8	0xbd898ca5	-0.06716279
9	0x3d950196	0.07275693
10	0xbc6bb4af	-0.01438634
11	0xbdbb3581	-0.091410644
12	0xbddef8e9	-0.108873196
13	0x3dbd9701	0.09257317
14	0x3d609439	0.054828856
15	0xbd9654e8	-0.07340413
16	0x3e1c8b10	0.15287423
17	0xbbd5e871	-0.0065279533
18	0x3da4b868	0.08042985
19	0xbda3d703	-0.079999946
20	0xbddecb9f	-0.108786814
21	0xbd56edb5	-0.05247279
22	0xbdb6c02e	-0.08923374
23	0x3d83d310	0.06436741
24	0x3de5d9ec	0.11223206
25	0x3e05932e	0.13044426
26	0x3da712fa	0.08157916
27	0xbd892056	-0.06695621
28	0x3be42276	0.006962116
29	0x3de7c87c	0.11317536
30	0xbdb3bb9d	-0.08776019
31	0xbdf9a499	-0.12189598
32	0x3da06dbf	0.078334324
33	0x3d83e1ae	0.06439529
34	0xbcd02add	-0.025411064
35	0x3b54444a	0.0032389336
36	0x3d598451	0.053104702
37	0xbd4df203	-0.05027963
38	0x3d169f7b	0.036773186
39	0x3db6dbc2	0.08928634
40	0x3e36dfba	0.17858782
41	0xbdd55871	-0.104172595
42	0xbdf4fb88	-0.11962038
43	0x3d1f7760	0.038932204
44	0x3d59fd96	0.053220354
45	0x3d8823e8	0.066474736
46	0x3da05a0e	0.078296766
47	0x3dc927fb	0.09822079
48	0xbda414a6	-0.08011751
49	0x3cc71fe9	0.024307208
50	0xbcc3f507	-0.02392055
51	0xbcab7cb1	-0.020933481
52	0x3dcf3a44	0.10118535
53	0x3e186a79	0.14884366
54	0x3c9cf071	0.01915762
55	0x3ce03b10	0.027371913
56	0x3c4dccaf	0.012561007
57	0x3c478c31	0.01217942
58	0xbca05621	-0.01957232
59	0x3d356e7e	0.044294827
60	0x3c795f15	0.015220423
61	0xbda957e7	-0.08268719
62	0xbd9c2b4f	-0.07625448
63	0x3d980e9e	0.07424663
64	0x3d53a8ac	0.05167453
65	0x3e0552e4	0.13019902
66	0xbd63cb90	-0.055614054
67	0x3c082b9d	0.0083111795
68	0x3d963199	0.07333679
69	0xbdbd3d6e	-0.092402324
70	0xbdce764b	-0.10081156
71	0xbda326d1	-0.07966388
72	0x3ce51ecd	0.027968789
73	0xbab432f7	-0.0013748099
74	0x3dfb44c6	0.12268977
75	0x3da3b509	0.07993514
76	0xbc7c68e5	-0.015405868
77	0x3cb21410	0.021738082
78	0x3d39f4f3	0.045399617
79	0x3c80bba7	0.01571448
80	0xbca91b0e	-0.020642783
81	0xbc753204	-0.014965538
82	0xbde2f320	-0.11081529
83	0x3d7791bb	0.060441714
84	0x3da28fed	0.07937608
85	0x3d9f4f66	0.07778816
86	0xbdf86339	-0.121283
87	0x3e37b080	0.17938423
88	0xbdf601cb	-0.12012061
89	0xbcb112b6	-0.021615367
90	0x3d334318	0.043765157
91	0x3cab3af8	0.020902142
92	0xbce77731	-0.028255077
93	0xbda5d070	-0.08096397
94	0xbdc1ea17	-0.09468477
95	0x3d3d3e77	0.04620215
96	0x3db10b8d	0.08644781
97	0x3952e1c0	0.00020111259
98	0xbdd4f137	-0.103975706
99	0x3d60058e	0.054692797
100	0x3d8019c7	0.06254917
101	0xbd5f540a	-0.054523505
102	0xbdce98c5	-0.10087732
103	0x3dedf4a4	0.11618927
104	0x3dcc489f	0.09974789
105	0x3dd3e6a2	0.10346724
106	0xbda5ebb3	-0.08101597
107	0x3e134d3b	0.1438493
108	0x3d126b9c	0.035747156
109	0xbd692831	-0.056923095
110	0x3dff2249	0.12457711
111	0xbd97f8bc	-0.07420489
112	0xbde6b7b0	-0.11265504
113	0xbd3f5503	-0.046711933
114	0x3d02efb0	0.031966865
115	0xbd836369	-0.06415445
116	0x3da7b1d9	0.081882186
117	0x3d97acc0	0.07405996
118	0xbddce377	-0.10785573
119	0xbdbae061	-0.09124828
120	0x3e058014	0.13037139
121	0x3ddc4d99	0.10756988
122	0xbcefee90	-0.02928856
123	0x3db73eaf	0.08947503
124	0x3d2215cc	0.03957157
125	0x3d1d2f4f	0.038375195
126	0x3c8b8ef9	0.017035948
127	0xbcb292e9	-0.021798568
128	0xbdd150c2	-0.102204815
129	0x3bb66b20	0.0055669695
130	0x3d1114a1	0.035420064
131	0xbddf7ad0	-0.109120965
132	0xbd9fdc3d	-0.07805679
133	0x3df7de4d	0.121029474
134	0xbc42c0b0	-0.011886761
135	0xbcf37919	-0.02972083
136	0x3c3d07b4	0.011537481
137	0xbbc3bbfc	-0.005973337
138	0xbd46936c	-0.048480436
139	0x3b9cacec	0.004781356
140	0xbdab51cc	-0.08365211
141	0x3c706ca0	0.014674336
142	0x3d3a5188	0.04548791
143	0xbdac1de0	-0.08404136
144	0x3be9ee31	0.0071389903
145	0xbd471840	-0.04860711
146	0xbd7ba011	-0.061431948
147	0xbd1eba91	-0.038752142
148	0x3dee623a	0.11639829
149	0xbdf73730	-0.12071073
150	0x3b3239f1	0.002719518
151	0xbde1c3ac	-0.110236496
152	0x3cab58d0	0.020916373
153	0xbd7abb96	-0.061214052
154	0xbd9b0831	-0.07569922
155	0x3cb32610	0.021868736
156	0xbddd57d4	-0.108077675
157	0xbd28df7a	-0.04122875
158	0xbdf829b2	-0.12117328
159	0x3d39f578	0.045400113
160	0x3de23580	0.110453606
161	0xbbf46546	-0.007458362
162	0xbd9af64f	-0.07566511
163	0xbdbb057e	-0.09131907
164	0xbdefe820	-0.11714196
165	0x3b0ed804	0.0021796236
166	0x3d4584d0	0.048222363
167	0x3dd36d77	0.10323613
168	0x3e188b06	0.14896783
169	0x3dc27f6d	0.09496961
170	0xbbb4c6f4	-0.005516881
171	0xbddc3d64	-0.10753897
172	0xbd546b3c	-0.05186008
173	0x3d95171c	0.072797984
174	0x3d33c79a	0.043891527
175	0xbde3dcca	-0.111260965
176	0xbde71bc8	-0.11284596
177	0xbc7c4330	-0.015396878
178	0x3c6d407f	0.014480709
179	0xbbdaec48	-0.006680999
180	0x3dcb128d	0.09915648
181	0x39e75e60	0.00044130068
182	0x3d94ef3c	0.07272193
183	0xbd46e438	-0.04855749
184	0x3d89ad52	0.06722511
185	0x3ddfba14	0.109241635
186	0x3c9ca850	0.019123226
187	0x3c8e09d8	0.017338678
188	0xbddac972	-0.10682954
189	0xbe001de8	-0.12511408
190	0xbd21f704	-0.039542213
191	0xbdf69373	-0.120398425
192	0x3ca6a1e0	0.02034086
193	0x3dc85e9f	0.097836725
194	0x3dd9e5b2	0.10639514
195	0xbd9bd0a8	-0.076081574
196	0x3d7e6ced	0.0621156
197	0x3ddc3ea8	0.10754138
198	0x3d8d32a0	0.068944216
199	0xbdcd954b	-0.10038241
200	0xbdb9369d	-0.0904362
201	0xbda4adb5	-0.080409445
202	0xbe012b29	-0.1261412
203	0x3e0aa955	0.13541158
204	0xbca09e85	-0.019606838
205	0x3d81a824	0.063308984
206	0x3dca59da	0.09880419
207	0xbc5888ef	-0.013216241
208	0x3d66897a	0.05628345
209	0x3dd382f9	0.103277154
210	0x3dc36f02	0.095426574
211	0x3e439f1c	0.19103664
212	0x3c47af54	0.012187798
213	0xbdd52722	-0.104078546
214	0x3dda21de	0.10650991
215	0x3e02a9ab	0.12760036
216	0xbdfea5cf	-0.12433969
217	0x3de02c60	0.10945964
218	0x3d4351b1	0.04768533
219	0xbd85e050	-0.06536925
220	0x3da599c8	0.08085972
221	0xbd1dc992	-0.03852231
222	0xbdc931b6	-0.09823935
223	0x3dc58c23	0.096458696
224	0xbdc9846d	-0.09839711
225	0xbdfa9506	-0.12235455
226	0xbdd02fcb	-0.10165366
227	0x3dc63413	0.09677901
228	0xbd18627a	-0.03720329
229	0x3d93b298	0.072117984
230	0x3db8a21f	0.09015297
231	0xbd883718	-0.06651133
232	0x3d9c5a34	0.076343924
233	0xbd26697e	-0.04062795
234	0xbd72e51f	-0.05930054
235	0xbd9b5b1c	-0.07585737
236	0xbc280786	-0.0102557
237	0x3db58202	0.08862688
238	0x3dc91c20	0.098198175
239	0x3d109c1b	0.035305124
240	0x3dc7525b	0.09732505
241	0xbd7a3685	-0.06108715
242	0xbd96de29	-0.073665924
243	0x3d85dc6e	0.06536184
244	0xbd8924fc	-0.06696507
245	0xbdd34e12	-0.10317625
246	0xbd8a7933	-0.06761398
247	0xbd4644dd	-0.048405517
248	0x3d46bcb1	0.048519794
249	0x3e2c258f	0.16811202
250	0x3dd995fb	0.1062431
251	0x3d0db727	0.034598496
252	0x3dbc1fc5	0.09185747
253	0xbc0a4740	-0.008439839
254	0xbc7a02eb	-0.015259485
255	0xbd0fca0f	-0.035104807

linear.weight f4 [4, 64]
0	0x3d3af5aa	0.04564444
1	0xbe36dcec	-0.17857713
2	0xbe023164	-0.12714154
3	0x3d08dd95	0.033414442
4	0xbd21266f	-0.039343294
5	0xbe16f806	-0.14743051
6	0xbd4c53e3	-0.049884688
7	0x3dbf41aa	0.09338696
8	0x3d975635	0.073894896
9	0xbd575ec1	-0.0525806
10	0xbd8e2b0f	-0.069418065
11	0x3952e25b	0.00020111485
12	0x3d1fa6aa	0.038977303
13	0xbd381393	-0.044940542
14	0x3d2b2aee	0.041788988
15	0xbe142142	-0.14465812
16	0xbe00f5f4	-0.12593824
17	0xbd6df890	-0.058098376
18	0xbd87550f	-0.066080205
19	0x3e2aa0ac	0.16662854
20	0xbdb07800	-0.08616638
21	0xbc0008d4	-0.007814605
22	0xbe27121a	-0.16315499
23	0xbe28228d	-0.1641943
24	0x3d8de64f	0.069286935
25	0xbcfa20da	-0.030533243
26	0x3e2533a7	0.16132985
27	0x3c13b081	0.00901425
28	0xbaa93ed0	-0.0012912396
29	0x3ca58d38	0.02020894
30	0xbcbde327	-0.023179604
31	0xbd160733	-0.03662796
32	0xbddf2309	-0.10895354
33	0x3d1c8959	0.038216922
34	0x3c3c54ee	0.011494858
35	0xbd6b507a	-0.057449795
36	0x3e404946	0.18777952
37	0x3e13f740	0.14449787
38	0x3d1a4bfc	0.03767012
39	0xbded2d32	-0.11580886
40	0xbdf75e02	-0.120784774
41	0x3ddbf07f	0.1073923
42	0xbdd88422	-0.10572077
43	0x3dd5bd93	0.10436549
44	0xbd912278	-0.070866525
45	0x3aca5cbe	0.0015439016
46	0xbd60a0d2	-0.05484087
47	0x3e05ea13	0.13077573
48	0x3d78ac20	0.060711026
49	0x3e1dcb5a	0.15409604
50	0xbdbebc60	-0.093132734
51	0x3ca86345	0.020555148
52	0xbbad16ec	-0.0052822735
53	0x3bcc9d6d	0.0062443526
54	0xbdf1e2cf	-0.118108384
55	0x3dd4b789	0.10386569
56	0xbe4d5bd5	-0.20054562
57	0x3df46be2	0.119346395
58	0xbd8d34c3	-0.06894829
59	0x3e1dc6f8	0.15407932
60	0x3d9c40ae	0.07629524
61	0x3dc00bc1	0.09377242
62	0xbbbe4a73	-0.005807215
63	0x3cc825fd	0.024432177
64	0xbd782611	-0.060583178
65	0x3df8ff40	0.1215806
66	0x3e12fa0f	0.14353202
67	0x3b029705	0.001992644
68	0xbc1f3847	-0.009718007
69	0x3e2c7fbd	0.16845603
70	0x3d450ace	0.048106007
71	0xbde60f6e	-0.11233412
72	0x3dc3cce2	0.09560563
73	0x3dca6022	0.09881617
74	0xbc983412	-0.018579517
75	0xbda2b720	-0.079450846
76	0x3dd95013	0.10610976
77	0xbd91bbd9	-0.07115907
78	0xbd8c291d	-0.06843779
79	0x3de85146	0.11343627
80	0xbc2f9ef2	-0.010719048
81	0x3d772edd	0.060347427
82	0xbd135952	-0.035973854
83	0xbdbfaf69	-0.09359629
84	0x3d65a1a3	0.056062352
85	0xbdd45e27	-0.10369521
86	0x3c83e642	0.016101006
87	0xbcb09963	-0.021557515
88	0x3d301910	0.04299265
89	0x3d7c2c93	0.061565947
90	0x3ce361b3	0.027756548
91	0xbe18ecb7	-0.1493405
92	0xbe06a145	-0.13147457
93	0xbd333d24	-0.04375948
94	0xbd7a51d5	-0.061113197
95	0xbdbdde2e	-0.09270893
96	0xbd4dbd52	-0.050229378
97	0x3c5b5a9d	0.013388303
98	0x3d9bf4e4	0.076150686
99	0x3be8fb2b	0.0071100197
100	0x3dfd18b9	0.12358231
101	0xbe11cdf0	-0.14238715
102	0xbdedd4f3	-0.116128825
103	0xbd5d235f	-0.05398881
104	0xbd160f71	-0.03663582
105	0x3d278554	0.040898636
106	0x3dc2ab29	0.095053025
107	0xbe11bc70	-0.1423204
108	0xba88555e	-0.0010401418
109	0x3dc8ff70	0.09814346
110	0x3dea4aef	0.11440074
111	0xbd439cd4	-0.047756985
112	0xbb6cf12d	-0.0036154494
113	0x3da86916	0.082231686
114	0x3d7e920a	0.062150992
115	0xbd845a24	-0.064625055
116	0x3cad48f9	0.02115296
117	0x3c34fbd5	0.01104637
118	0x3e078d63	0.13237529
119	0xbcc5f988	-0.024166837
120	0xbe03005e	-0.12793109
121	0xbe129969	-0.14316334
122	0x3de46345	0.11151747
123	0xbdc04f5c	-0.093901366
124	0xbdca4179	-0.09875769
125	0xbd75a308	-0.05996993
126	0xbdc40e4e	-0.09573041
127	0xbaa510b2	-0.0012593477
128	0x3b6df1ef	0.0036307534
129	0x3b9b43cc	0.0047383066
130	0x3be4f192	0.0069868052
131	0xbd829b44	-0.06377271
132	0x3cbe8c54	0.023260273
133	0x3cdd5e38	0.027022466
134	0x3d5d6093	0.05404718
135	0x3d8bda99	0.068288036
136	0x3cc0eba2	0.023549858
137	0xbdc5e13b	-0.096621
138	0x3d1d4753	0.0383981
139	0x3dec7e13	0.11547484
140	0xbde0996f	-0.10966765
141	0xbd4e6b78	-0.05039546
142	0x3af77f86	0.001888261
143	0xbde4c78e	-0.111708745
144	0x3da94de8	0.082668126
145	0xbdfc4ce0	-0.1231935
146	0xbd243044	-0.040085092
147	0x3e0b3899	0.13595809
148	0x3dc17895	0.09446827
149	0xbd1c475b	-0.038153987
150	0x3d8e056c	0.06934628
151	0xbda1c226	-0.07898359
152	0xbe0ad2c7	-0.13556968
153	0x3cf353ec	0.029703103
154	0x3d3c4ce5	0.04597177
155	0xbd873125	-0.066011705
156	0x3bb6b2fa	0.005575535
157	0x3dbc8dfb	0.09206768
158	0x3da74918	0.081682384
159	0x3d034933	0.03205223
160	0xbb788ce3	-0.0037925772
161	0xbc56167e	-0.013066886
162	0xbda1a126	-0.07892065
163	0xbbab32fb	-0.005224583
164	0x3d4ba81b	0.049720865
165	0x3dd8a270	0.105778575
166	0xbdb0cfe7	-0.08633404
167	0xbcaba8e8	-0.020954564
168	0xbde607b0	-0.11231935
169	0x38024973	3.106282e-05
170	0xbdaf1dd8	-0.08550614
171	0xbd4cf6e2	-0.050040133
172	0xbd31c54e	-0.043401055
173	0x3c8a81df	0.01690763
174	0xbdafa7ba	-0.08576913
175	0xbba3c5a6	-0.0049979268
176	0x3d05766b	0.032583635
177	0xbdf46e96	-0.11935155
178	0x3deae6e7	0.114698224
179	0xbd9236fc	-0.07139394
180	0xbbe53d61	-0.0069958423
181	0x3dd16065	0.10223464
182	0x3c92c24a	0.01791491
183	0x3dde9331	0.10867918
184	0xbd260c61	-0.04053915
185	0x3d831319	0.06400127
186	0xbb0aba2f	-0.0021168103
187	0x399f0270	0.0003032866
188	0x3d7b4d19	0.061352823
189	0x3de5e099	0.11224479
190	0x3d8361ff	0.06415176
191	0xbdc77d2e	-0.09740673
192	0x3d45c40d	0.04828267
193	0x3e084013	0.13305692
194	0x3e46a421	0.19398548
195	0x3de270b4	0.11056653
196	0xbdba1bb9	-0.09087319
197	0x3c37908d	0.011203897
198	0xbc105c54	-0.008811075
199	0x3de76ff3	0.113006495
200	0x3d3d548f	0.04622322
201	0x3de405ee	0.111339435
202	0xbd478b98	-0.04871711
203	0x3e3ace3a	0.18242732
204	0x3c2f58cf	0.010702326
205	0x3d14f2f6	0.036364518
206	0xbd99da40	-0.07512331
207	0x3c0192ba	0.0079085175
208	0x3dd02d55	0.101648964
209	0x3d6dc257	0.058046665
210	0x3ce2f591	0.027704986
211	0xbe14e020	-0.14538622
212	0x3d006db2	0.031354614
213	0x3db5ce77	0.08877271
214	0x3dbcc6de	0.092176184
215	0x3e31a3ce	0.17347643
216	0xbd601a65	-0.05471267
217	0x3df4a392	0.11945261
218	0xbe3a9b4e	-0.18223307
219	0x3e2996c5	0.1656142
220	0x3c464e88	0.012103684
221	0x3d45cd4c	0.04829149
222	0xbcdb7d06	-0.026793014
223	0xbd2b3c4e	-0.041805558
224	0x3d890f88	0.066924155
225	0xbdab6b66	-0.08370094
226	0x3db591e4	0.08865717
227	0x3dc22ec5	0.09481577
228	0xbd9ae43c	-0.075630635
229	0xbddd5e89	-0.10809047
230	0x3a998114	0.0011711442
231	0x3cfb3def	0.03066918
232	0x3d9e7cd6	0.07738654
233	0x3d0bb221	0.034105424
234	0xbce463d7	-0.027879639
235	0xbdcaa29c	-0.098942965
236	0x3dc9636e	0.09833418
237	0x3db5240a	0.088447645
238	0x3d603420	0.05473721
239	0xbc484fba	-0.01222604
240	0x3be89b40	0.0070985854
241	0xbe6575e9	-0.2240826
242	0x3df56a0e	0.11983119
243	0xbd886178	-0.06659216
244	0xbd343971	-0.044000093
245	0xbd139232	-0.036028095
246	0x3dabb73b	0.08384558
247	0x3d0078cd	0.031365205
248	0x3dca1091	0.09866441
249	0xbe2712d5	-0.16315778
250	0x3e065058	0.13116586
251	0xbe2c43ba	-0.1682271
252	0xbd5f3159	-0.05449042
253	0x3cde9090	0.027168542
254	0x3de11227	0.109897904
255	0xbd2dde2f	-0.04244822

linear.bias f4 [4]
0	0xbd604b56	-0.054759346
1	0xbdc5160e	-0.09623347
2	0x3d84d606	0.06486134
3	0x3e1cf344	0.15327173
